…
   "cell_type": "code",
   "execution_count": 18,
   "metadata": {
    "colab": {
     "base_uri": "https://localhost:8080/"
    },
    "id": "KgC1YT9khJh4",
    "outputId": "efe3bbd5-2cb4-4139-d519-07c4763b8c55"
   },
   "outputs": [
    {
     "name": "stdout",
     "output_type": "stream",
     "text": [
      "Model: \"sequential\"\n",
      "_________________________________________________________________\n",
      "Layer (type)                 Output Shape              Param #   \n",
      "=================================================================\n",
      "conv3d (Conv3D)              (None, 16, 96, 96, 16)    6016      \n",
      "_________________________________________________________________\n",
      "max_pooling3d (MaxPooling3D) (None, 8, 48, 48, 16)     0         \n",
      "_________________________________________________________________\n",
      "batch_normalization (BatchNo (None, 8, 48, 48, 16)     64        \n",
      "_________________________________________________________________\n",
      "conv3d_1 (Conv3D)            (None, 6, 46, 46, 32)     13856     \n",
      "_________________________________________________________________\n",
      "max_pooling3d_1 (MaxPooling3 (None, 6, 23, 23, 32)     0         \n",
      "_________________________________________________________________\n",
      "batch_normalization_1 (Batch (None, 6, 23, 23, 32)     128       \n",
      "_________________________________________________________________\n",
      "conv3d_2 (Conv3D)            (None, 4, 21, 21, 64)     55360     \n",
      "_________________________________________________________________\n",
      "max_pooling3d_2 (MaxPooling3 (None, 4, 11, 11, 64)     0         \n",
      "_________________________________________________________________\n",
      "batch_normalization_2 (Batch (None, 4, 11, 11, 64)     256       \n",
      "_________________________________________________________________\n",
      "flatten (Flatten)            (None, 30976)             0         \n",
      "_________________________________________________________________\n",
      "dense (Dense)                (None, 128)               3965056   \n",
      "_________________________________________________________________\n",
      "batch_normalization_3 (Batch (None, 128)               512       \n",
      "_________________________________________________________________\n",
      "dropout (Dropout)            (None, 128)               0         \n",
      "_________________________________________________________________\n",
      "dense_1 (Dense)              (None, 64)                8256      \n",
      "_________________________________________________________________\n",
      "batch_normalization_4 (Batch (None, 64)                256       \n",
      "_________________________________________________________________\n",
      "dropout_1 (Dropout)          (None, 64)                0         \n",
      "_________________________________________________________________\n",
      "dense_2 (Dense)              (None, 5)                 325       \n",
      "=================================================================\n",
      "Total params: 4,050,085\n",
      "Trainable params: 4,049,477\n",
      "Non-trainable params: 608\n",
      "_________________________________________________________________\n"
     ]
    }
   ],
   "source": [
    "#write your model here\n",
    "\n",
    "def defineModel(img_tensor):\n",
    "    inputShape = (len(img_tensor[0]), img_tensor[1], img_tensor[2], img_tensor[3])\n",
…
   "cell_type": "code",
   "execution_count": 23,
   "metadata": {
    "colab": {
     "base_uri": "https://localhost:8080/"
    },
    "id": "pHdZ2h1CjWsv",
    "outputId": "09e5fd60-408b-4e9b-f4fa-7889d6c62a42"
   },
   "outputs": [
    {
     "name": "stdout",
     "output_type": "stream",
     "text": [
      "Model: \"conv_3d1\"\n",
      "_________________________________________________________________\n",
      "Layer (type)                 Output Shape              Param #   \n",
      "=================================================================\n",
      "conv3d_3 (Conv3D)            (None, 12, 96, 96, 16)    6016      \n",
      "_________________________________________________________________\n",
      "max_pooling3d_3 (MaxPooling3 (None, 6, 48, 48, 16)     0         \n",
      "_________________________________________________________________\n",
      "batch_normalization_5 (Batch (None, 6, 48, 48, 16)     64        \n",
      "_________________________________________________________________\n",
      "conv3d_4 (Conv3D)            (None, 4, 46, 46, 32)     13856     \n",
      "_________________________________________________________________\n",
      "max_pooling3d_4 (MaxPooling3 (None, 4, 23, 23, 32)     0         \n",
      "_________________________________________________________________\n",
      "batch_normalization_6 (Batch (None, 4, 23, 23, 32)     128       \n",
      "_________________________________________________________________\n",
      "conv3d_5 (Conv3D)            (None, 2, 21, 21, 64)     55360     \n",
      "_________________________________________________________________\n",
      "max_pooling3d_5 (MaxPooling3 (None, 2, 11, 11, 64)     0         \n",
      "_________________________________________________________________\n",
      "batch_normalization_7 (Batch (None, 2, 11, 11, 64)     256       \n",
      "_________________________________________________________________\n",
      "flatten_1 (Flatten)          (None, 15488)             0         \n",
      "_________________________________________________________________\n",
      "dense_3 (Dense)              (None, 128)               1982592   \n",
      "_________________________________________________________________\n",
      "batch_normalization_8 (Batch (None, 128)               512       \n",
      "_________________________________________________________________\n",
      "dropout_2 (Dropout)          (None, 128)               0         \n",
      "_________________________________________________________________\n",
      "dense_4 (Dense)              (None, 64)                8256      \n",
      "_________________________________________________________________\n",
      "batch_normalization_9 (Batch (None, 64)                256       \n",
      "_________________________________________________________________\n",
      "dropout_3 (Dropout)          (None, 64)                0         \n",
      "_________________________________________________________________\n",
      "dense_5 (Dense)              (None, 5)                 325       \n",
      "=================================================================\n",
      "Total params: 2,067,621\n",
      "Trainable params: 2,067,013\n",
      "Non-trainable params: 608\n",
      "_________________________________________________________________\n",
      "None\n",
      "Source path =  /home/datasets/Project_data/train ; batch size = 64\n",
      "Epoch 1/20\n",
      "11/11 [==============================] - ETA: 0s - loss: 1.4363 - categorical_accuracy: 0.4842Source path =  /home/datasets/Project_data/val ; batch size = 64\n",
…
    "plotModelHistory(model2_history)"
   ]
  },
  {
   "cell_type": "markdown",
   "metadata": {},
   "source": [
    "## Model 3: Frames-30, Epochs-20"
   ]
  },
  {
   "cell_type": "code",
   "execution_count": 27,
   "metadata": {},
   "outputs": [
    {
     "name": "stdout",
     "output_type": "stream",
     "text": [
      "Model: \"conv_3d3\"\n",
      "_________________________________________________________________\n",
      "Layer (type)                 Output Shape              Param #   \n",
      "=================================================================\n",
      "conv3d_9 (Conv3D)            (None, 30, 100, 100, 16)  1312      \n",
      "_________________________________________________________________\n",
      "max_pooling3d_9 (MaxPooling3 (None, 15, 50, 50, 16)    0         \n",
      "_________________________________________________________________\n",
      "batch_normalization_15 (Batc (None, 15, 50, 50, 16)    64        \n",
      "_________________________________________________________________\n",
      "conv3d_10 (Conv3D)           (None, 15, 50, 50, 32)    13856     \n",
      "_________________________________________________________________\n",
      "max_pooling3d_10 (MaxPooling (None, 8, 25, 25, 32)     0         \n",
      "_________________________________________________________________\n",
      "batch_normalization_16 (Batc (None, 8, 25, 25, 32)     128       \n",
      "_________________________________________________________________\n",
      "conv3d_11 (Conv3D)           (None, 8, 25, 25, 64)     55360     \n",
      "_________________________________________________________________\n",
      "max_pooling3d_11 (MaxPooling (None, 4, 13, 13, 64)     0         \n",
      "_________________________________________________________________\n",
      "batch_normalization_17 (Batc (None, 4, 13, 13, 64)     256       \n",
      "_________________________________________________________________\n",
      "flatten_3 (Flatten)          (None, 43264)             0         \n",
      "_________________________________________________________________\n",
      "dense_9 (Dense)              (None, 128)               5537920   \n",
      "_________________________________________________________________\n",
      "batch_normalization_18 (Batc (None, 128)               512       \n",
      "_________________________________________________________________\n",
      "dropout_6 (Dropout)          (None, 128)               0         \n",
      "_________________________________________________________________\n",
      "dense_10 (Dense)             (None, 64)                8256      \n",
      "_________________________________________________________________\n",
      "batch_normalization_19 (Batc (None, 64)                256       \n",
      "_________________________________________________________________\n",
      "dropout_7 (Dropout)          (None, 64)                0         \n",
      "_________________________________________________________________\n",
      "dense_11 (Dense)             (None, 5)                 325       \n",
      "=================================================================\n",
      "Total params: 5,618,245\n",
      "Trainable params: 5,617,637\n",
      "Non-trainable params: 608\n",
      "_________________________________________________________________\n",
      "None\n",
      "Source path =  /home/datasets/Project_data/train ; batch size = 64\n",
      "Epoch 1/20\n",
      "11/11 [==============================] - ETA: 0s - loss: 1.4822 - categorical_accuracy: 0.4842 Source path =  /home/datasets/Project_data/val ; batch size = 64\n",
…
   "cell_type": "markdown",
   "metadata": {},
   "source": [
    "## Model 4: Frames-20, Added Conv3D Layer giving Reduced Parameters"
   ]
  },
  {
   "cell_type": "code",
   "execution_count": 29,
   "metadata": {},
   "outputs": [
    {
     "name": "stdout",
     "output_type": "stream",
     "text": [
      "Model: \"conv_3d4\"\n",
      "_________________________________________________________________\n",
      "Layer (type)                 Output Shape              Param #   \n",
      "=================================================================\n",
      "conv3d_12 (Conv3D)           (None, 20, 100, 100, 16)  1312      \n",
      "_________________________________________________________________\n",
      "max_pooling3d_12 (MaxPooling (None, 10, 50, 50, 16)    0         \n",
      "_________________________________________________________________\n",
      "batch_normalization_20 (Batc (None, 10, 50, 50, 16)    64        \n",
      "_________________________________________________________________\n",
      "conv3d_13 (Conv3D)           (None, 10, 50, 50, 32)    13856     \n",
      "_________________________________________________________________\n",
      "max_pooling3d_13 (MaxPooling (None, 5, 25, 25, 32)     0         \n",
      "_________________________________________________________________\n",
      "batch_normalization_21 (Batc (None, 5, 25, 25, 32)     128       \n",
      "_________________________________________________________________\n",
      "conv3d_14 (Conv3D)           (None, 5, 25, 25, 64)     55360     \n",
      "_________________________________________________________________\n",
      "max_pooling3d_14 (MaxPooling (None, 3, 13, 13, 64)     0         \n",
      "_________________________________________________________________\n",
      "batch_normalization_22 (Batc (None, 3, 13, 13, 64)     256       \n",
      "_________________________________________________________________\n",
      "conv3d_15 (Conv3D)           (None, 3, 13, 13, 128)    221312    \n",
      "_________________________________________________________________\n",
      "max_pooling3d_15 (MaxPooling (None, 2, 7, 7, 128)      0         \n",
      "_________________________________________________________________\n",
      "batch_normalization_23 (Batc (None, 2, 7, 7, 128)      512       \n",
      "_________________________________________________________________\n",
      "flatten_4 (Flatten)          (None, 12544)             0         \n",
      "_________________________________________________________________\n",
      "dense_12 (Dense)             (None, 128)               1605760   \n",
      "_________________________________________________________________\n",
      "batch_normalization_24 (Batc (None, 128)               512       \n",
      "_________________________________________________________________\n",
      "dropout_8 (Dropout)          (None, 128)               0         \n",
      "_________________________________________________________________\n",
      "dense_13 (Dense)             (None, 64)                8256      \n",
      "_________________________________________________________________\n",
      "batch_normalization_25 (Batc (None, 64)                256       \n",
      "_________________________________________________________________\n",
      "dropout_9 (Dropout)          (None, 64)                0         \n",
      "_________________________________________________________________\n",
      "dense_14 (Dense)             (None, 5)                 325       \n",
      "=================================================================\n",
      "Total params: 1,907,909\n",
      "Trainable params: 1,907,045\n",
      "Non-trainable params: 864\n",
      "_________________________________________________________________\n",
      "None\n",
      "Source path =  /home/datasets/Project_data/train ; batch size = 64\n",
      "Epoch 1/20\n",
      "11/11 [==============================] - ETA: 0s - loss: 1.3359 - categorical_accuracy: 0.5128Source path =  /home/datasets/Project_data/val ; batch size = 64\n",
…
   "cell_type": "markdown",
   "metadata": {},
   "source": [
    "## Model 5: Frames:20, Epochs-20, Switching BatchNormalization before MaxPooling."
   ]
  },
  {
   "cell_type": "code",
   "execution_count": 31,
   "metadata": {},
   "outputs": [
    {
     "name": "stdout",
     "output_type": "stream",
     "text": [
      "Model: \"conv_3d5\"\n",
      "_________________________________________________________________\n",
      "Layer (type)                 Output Shape              Param #   \n",
      "=================================================================\n",
      "conv3d_16 (Conv3D)           (None, 20, 100, 100, 16)  400       \n",
      "_________________________________________________________________\n",
      "batch_normalization_26 (Batc (None, 20, 100, 100, 16)  64        \n",
      "_________________________________________________________________\n",
      "max_pooling3d_16 (MaxPooling (None, 10, 50, 50, 16)    0         \n",
      "_________________________________________________________________\n",
      "conv3d_17 (Conv3D)           (None, 10, 50, 50, 32)    4128      \n",
      "_________________________________________________________________\n",
      "batch_normalization_27 (Batc (None, 10, 50, 50, 32)    128       \n",
      "_________________________________________________________________\n",
      "max_pooling3d_17 (MaxPooling (None, 5, 25, 25, 32)     0         \n",
      "_________________________________________________________________\n",
      "conv3d_18 (Conv3D)           (None, 5, 25, 25, 64)     16448     \n",
      "_________________________________________________________________\n",
      "batch_normalization_28 (Batc (None, 5, 25, 25, 64)     256       \n",
      "_________________________________________________________________\n",
      "max_pooling3d_18 (MaxPooling (None, 2, 12, 12, 64)     0         \n",
      "_________________________________________________________________\n",
      "conv3d_19 (Conv3D)           (None, 2, 12, 12, 128)    65664     \n",
      "_________________________________________________________________\n",
      "batch_normalization_29 (Batc (None, 2, 12, 12, 128)    512       \n",
      "_________________________________________________________________\n",
      "max_pooling3d_19 (MaxPooling (None, 1, 6, 6, 128)      0         \n",
      "_________________________________________________________________\n",
      "flatten_5 (Flatten)          (None, 4608)              0         \n",
      "_________________________________________________________________\n",
      "dense_15 (Dense)             (None, 256)               1179904   \n",
      "_________________________________________________________________\n",
      "dense_16 (Dense)             (None, 128)               32896     \n",
      "_________________________________________________________________\n",
      "dense_17 (Dense)             (None, 5)                 645       \n",
      "=================================================================\n",
      "Total params: 1,301,045\n",
      "Trainable params: 1,300,565\n",
      "Non-trainable params: 480\n",
      "_________________________________________________________________\n",
      "None\n",
      "Source path =  /home/datasets/Project_data/train ; batch size = 64\n",
      "Epoch 1/20\n",
      "11/11 [==============================] - ETA: 0s - loss: 3.3738 - categorical_accuracy: 0.3424Source path =  /home/datasets/Project_data/val ; batch size = 64\n",
…
   "cell_type": "markdown",
   "metadata": {},
   "source": [
    "## Model 6: Switching Model Architecture to Conv2D+LSTM with Batch Size 32"
   ]
  },
  {
   "cell_type": "code",
   "execution_count": 33,
   "metadata": {},
   "outputs": [
    {
     "name": "stdout",
     "output_type": "stream",
     "text": [
      "Model: \"conv_2d_lstm\"\n",
      "_________________________________________________________________\n",
      "Layer (type)                 Output Shape              Param #   \n",
      "=================================================================\n",
      "time_distributed (TimeDistri (None, 20, 100, 100, 16)  448       \n",
      "_________________________________________________________________\n",
      "time_distributed_1 (TimeDist (None, 20, 100, 100, 16)  64        \n",
      "_________________________________________________________________\n",
      "time_distributed_2 (TimeDist (None, 20, 50, 50, 16)    0         \n",
      "_________________________________________________________________\n",
      "time_distributed_3 (TimeDist (None, 20, 50, 50, 32)    4640      \n",
      "_________________________________________________________________\n",
      "time_distributed_4 (TimeDist (None, 20, 50, 50, 32)    128       \n",
      "_________________________________________________________________\n",
      "time_distributed_5 (TimeDist (None, 20, 25, 25, 32)    0         \n",
      "_________________________________________________________________\n",
      "time_distributed_6 (TimeDist (None, 20, 25, 25, 64)    18496     \n",
      "_________________________________________________________________\n",
      "time_distributed_7 (TimeDist (None, 20, 25, 25, 64)    256       \n",
      "_________________________________________________________________\n",
      "time_distributed_8 (TimeDist (None, 20, 12, 12, 64)    0         \n",
      "_________________________________________________________________\n",
      "time_distributed_9 (TimeDist (None, 20, 12, 12, 128)   73856     \n",
      "_________________________________________________________________\n",
      "time_distributed_10 (TimeDis (None, 20, 12, 12, 128)   512       \n",
      "_________________________________________________________________\n",
      "time_distributed_11 (TimeDis (None, 20, 6, 6, 128)     0         \n",
      "_________________________________________________________________\n",
      "time_distributed_12 (TimeDis (None, 20, 6, 6, 256)     295168    \n",
      "_________________________________________________________________\n",
      "time_distributed_13 (TimeDis (None, 20, 6, 6, 256)     1024      \n",
      "_________________________________________________________________\n",
      "time_distributed_14 (TimeDis (None, 20, 3, 3, 256)     0         \n",
      "_________________________________________________________________\n",
      "time_distributed_15 (TimeDis (None, 20, 2304)          0         \n",
      "_________________________________________________________________\n",
      "lstm (LSTM)                  (None, 256)               2622464   \n",
      "_________________________________________________________________\n",
      "dropout_10 (Dropout)         (None, 256)               0         \n",
      "_________________________________________________________________\n",
      "dense_18 (Dense)             (None, 256)               65792     \n",
      "_________________________________________________________________\n",
      "dropout_11 (Dropout)         (None, 256)               0         \n",
      "_________________________________________________________________\n",
      "dense_19 (Dense)             (None, 5)                 1285      \n",
      "=================================================================\n",
      "Total params: 3,084,133\n",
      "Trainable params: 3,083,141\n",
      "Non-trainable params: 992\n",
      "_________________________________________________________________\n",
      "None\n",
      "Source path =  /home/datasets/Project_data/train ; batch size = 32\n",
      "Epoch 1/30\n",
      "21/21 [==============================] - ETA: 0s - loss: 1.1918 - categorical_accuracy: 0.5098Source path =  /home/datasets/Project_data/val ; batch size = 32\n",
…
   "execution_count": 36,
   "metadata": {},
   "outputs": [
    {
     "name": "stdout",
     "output_type": "stream",
     "text": [
      "WARNING:tensorflow:`input_shape` is undefined or non-square, or `rows` is not in [128, 160, 192, 224]. Weights for input shape (224, 224) will be loaded as the default.\n",
      "Model: \"mobilenet_lstm\"\n",
      "_________________________________________________________________\n",
      "Layer (type)                 Output Shape              Param #   \n",
      "=================================================================\n",
      "time_distributed_16 (TimeDis (None, 20, 3, 3, 1024)    3228864   \n",
      "_________________________________________________________________\n",
      "time_distributed_17 (TimeDis (None, 20, 3, 3, 1024)    4096      \n",
      "_________________________________________________________________\n",
      "time_distributed_18 (TimeDis (None, 20, 1, 1, 1024)    0         \n",
      "_________________________________________________________________\n",
      "time_distributed_19 (TimeDis (None, 20, 1024)          0         \n",
      "_________________________________________________________________\n",
      "lstm_1 (LSTM)                (None, 256)               1311744   \n",
      "_________________________________________________________________\n",
      "dropout_12 (Dropout)         (None, 256)               0         \n",
      "_________________________________________________________________\n",
      "dense_20 (Dense)             (None, 256)               65792     \n",
      "_________________________________________________________________\n",
      "dropout_13 (Dropout)         (None, 256)               0         \n",
      "_________________________________________________________________\n",
      "dense_21 (Dense)             (None, 5)                 1285      \n",
      "=================================================================\n",
      "Total params: 4,611,781\n",
      "Trainable params: 1,380,869\n",
      "Non-trainable params: 3,230,912\n",
      "_________________________________________________________________\n",
      "None\n",
      "Source path =  /home/datasets/Project_data/train ; batch size = 64\n",
      "Epoch 1/30\n",
      "11/11 [==============================] - ETA: 0s - loss: 1.3180 - categorical_accuracy: 0.4676Source path =  /home/datasets/Project_data/val ; batch size = 64\n",
…
